nc: 11
scales:
  n: [0.33, 0.25, 1024]
  s: [0.33, 0.50, 1024]
  m: [0.67, 0.75, 768]
  l: [1.00, 1.00, 512]
  x: [1.00, 1.25, 512]

backbone:
  - [-1, 1, Conv, [64, 3, 2]] # 0-P1/2
  - [-1, 1, Conv, [128, 3, 2]] # 1-P2/4
  - [-1, 3, C2f, [128, True]]
  - [-1, 1, Conv, [256, 3, 2]] # 3-P3/8
  - [-1, 6, C2f, [256, True]]
  - [-1, 1, Conv, [512, 3, 2]] # 5-P4/16
  - [-1, 6, C2f, [512, True]]
  - [-1, 1, Conv, [1024, 3, 2]] # 7-P5/32
  - [-1, 3, C2f, [1024, True]]
  - [-1, 1, SPPF, [1024, 5]] # 9
  - [1, 1, Angle, [128, 1, 1]]# 10 将P2角度化为AP2
  - [-1, 3, C2f, [ 128, True ] ]
  - [-1, 1, Conv, [ 256, 3, 2] ] #12-AP3/8
  - [-1, 6, C2f, [ 256, True ] ]
  - [-1, 1, Conv, [ 512, 3, 2 ] ] # 14-AP4/16
  - [-1, 6, C2f, [ 512, True ] ]
  - [-1, 1, Conv, [ 1024, 3, 2 ] ] # 16-AP5/32
  - [-1, 3, C2f, [ 1024, True ] ]
  - [-1, 1, SPPF, [ 1024, 5 ] ] # 18

head:
  - [9, 1, nn.Upsample, [None, 2, "nearest"]]
  - [[-1, 6], 1, Concat, [1]] # cat backbone P4
  - [-1, 3, C2f, [512]] # 21

  - [-1, 1, nn.Upsample, [None, 2, "nearest"]]
  - [[-1, 4], 1, Concat, [1]] # cat backbone P3
  - [-1, 3, C2f, [256]] # 24 (P3/8-small)

  - [-1, 1, Conv, [256, 3, 2]]
  - [[-1, 21], 1, Concat, [1]] # cat head P4
  - [-1, 3, C2f, [512]] # 27 (P4/16-medium)

  - [-1, 1, Conv, [512, 3, 2]]
  - [[-1, 9], 1, Concat, [1]] # cat head P5
  - [-1, 3, C2f, [1024]] # 30 (P5/32-large)

  #角度线路
  - [18, 1, nn.Upsample, [None, 2, "nearest"]]
  - [[-1, 15], 1, Concat, [1]]
  - [-1, 3, C2f, [512]] # 33

  - [-1, 1, nn.Upsample, [None, 2, "nearest"]]
  - [[-1, 13], 1, Concat, [1]]
  - [-1, 3, C2f, [256]] # 36

  - [-1, 1, Conv, [256, 3, 2]]
  - [[-1, 33], 1, Concat, [1]]
  - [-1, 3, C2f, [512]] # 39

  - [-1, 1, Conv, [512, 3, 2]]
  - [[-1, 18], 1, Concat, [1]]
  - [-1, 3, C2f, [1024]] #42

  - [[24, 36], 1, Data_fusion, [256]]
  - [[27, 39], 1, Data_fusion, [512]]
  - [[30, 42], 1, Data_fusion, [1024]]

#  - [[15], 1, ImageAngle, [11]]
#  - [], 1, AngleAwareDetect, [nc]]
  - [[43, 44, 45], 1, Detect, [nc]]
#  - [[36, 39, 42], 1, Detect, [nc]]
#  - [[24, 27, 30], 1, Detect, [nc]]